models/mlp_strategy.pt (torch, 5754 bytes, 6 tensors)

0.weight f4 [32, 5]
000000 e6 b7 73 3e 0d 68 39 3d 52 34 37 3d ad 1b c5 3e
       0.2380062 0.045265246 0.04472763 0.38497677
000010 7a ab a1 3d 23 28 c1 3e e0 7a a4 3e 73 93 de 3d
       0.07894035 0.37725934 0.32124996 0.108679675
000020 9a 8d 0a bf a0 5e f5 be f5 0d 0d bc 08 89 4a 3e
       -0.54122317 -0.47923756 -0.008609285 0.19778836
000030 20 c6 b7 3e 55 cb a2 be eb 95 76 3e fe f6 94 3e
       0.35893345 -0.31795755 0.24080627 0.2909469
000040 b9 99 b1 3e b1 d9 a6 3e 6a 0e 08 3f 33 ea 92 3c
       0.34687594 0.3258796 0.53146994 0.01793394
000050 54 9c 4c be 33 b3 89 be ce 63 99 3e fd 84 f6 3e
       -0.1998151 -0.2689453 0.29958957 0.48148337
000060 b6 ff e8 3e f1 fb c9 3e a2 aa 0d 3f 51 4e e0 3e
       0.45507592 0.3945003 0.5533849 0.4380975
000070 3d 3c 0d be 00 ad c0 bd 30 fd cd be ef 45 c3 3e
       -0.1379251 -0.09407997 -0.4023223 0.38139293
000080 46 28 5f be 53 3a 9e 3c 50 2d 8e be 1b c3 8a 3e
       -0.21792707 0.01931492 -0.27768946 0.2710198
000090 be 79 6b 3e e1 1d d9 bd db 9b c6 be 38 40 50 3d
       0.2299566 -0.10601402 -0.38790783 0.050842494
0000a0 07 fb 04 bf bd 61 e3 be 35 76 0a be 2b 2e d0 3e
       -0.5194554 -0.44410506 -0.13521655 0.40660223
0000b0 1e 48 7b 3e 80 94 08 bf 9b 47 10 bf 36 f2 6e 3e
       0.2453923 -0.53351593 -0.5635926 0.23334584
0000c0 32 6a 9a be 2d 89 9f bd 65 ec fa be 07 24 96 bc
       -0.30159146 -0.07789836 -0.4900848 -0.018327726
0000d0 f9 03 9e 3e f9 43 ef 3e f6 22 7a be f8 28 b2 be
       0.30862406 0.46731547 -0.24427399 -0.34796882
0000e0 c4 c2 03 3e 96 08 61 be b4 68 8b bd fe b2 9e be
       0.12867266 -0.21975932 -0.0680708 -0.30995935
0000f0 e4 fb 7b be 6d 97 b7 3e 53 23 a3 be c5 f1 05 3d
       -0.24607807 0.35857716 -0.31862888 0.032701273
000100 e8 ae a6 3d 55 a0 96 be f1 4a 9d 3e 0f df f5 be
       0.081388295 -0.294192 0.30721238 -0.48021743
000110 eb bf 8e 3e af e1 1b 3d f4 3b 38 3e b7 0f aa 3e
       0.27880797 0.038057026 0.1799162 0.33215114
000120 df 9c 46 be f1 68 a0 bd 92 d4 d3 bd e8 42 d9 be
       -0.19395779 -0.07832516 -0.10343279 -0.42433858
000130 f7 4f a0 be 8f 5d f5 bd 57 ca c4 3d 5d b3 02 3f
       -0.31311008 -0.119807355 0.09608906 0.51054937
000140 2c fb d9 3d 93 ce 31 3d 38 06 a1 bd 8a 8e 03 3c
       0.1064361 0.043409895 -0.07862514 0.008029589
000150 75 04 1f bd 79 25 d4 bc f8 9a ff be 31 0c dc 3e
       -0.03882261 -0.025896775 -0.4992292 0.4297805
000160 81 9a c4 3d 06 e6 2e bd 76 99 66 3e 6d c9 65 be
       0.09599782 -0.042699836 0.22519478 -0.22440119
000170 8f 72 03 3f 96 f6 e6 3c 54 d0 9e be fa 01 3d be
       0.5134668 0.028193753 -0.31018317 -0.18457785
000180 9a 0d c9 be 62 77 8f be 78 13 08 3d e3 30 dd 3d
       -0.3926819 -0.2802077 0.03322169 0.1080034
000190 91 2c 64 3e b4 37 f8 3e 0a b1 88 3e aa 6a a5 be
       0.22282626 0.48479998 0.2669757 -0.3230794
0001a0 83 5d ab 3e c6 f7 90 be d9 8e a5 3e 14 5e 88 bd
       0.3346978 -0.28314036 0.32335547 -0.06658569
0001b0 96 a4 a7 3e bf b2 03 3f 64 71 92 be 26 7a 8b be
       0.32742757 0.5144462 -0.28602135 -0.2724163
0001c0 32 9f 3b be 2d 42 85 bd e8 95 00 3f 54 7b 8b 3e
       -0.18322447 -0.06506763 0.5022874 0.2724253
0001d0 8a a6 e1 3d cb f6 8b 3d 78 8f 44 be 0b b8 1c bd
       0.11018093 0.068341814 -0.19195354 -0.038261455
0001e0 de 3d d5 3d 23 57 5b 3e fc c9 d6 be bf 1f 27 3d
       0.10412191 0.21419959 -0.41950977 0.04080176
0001f0 95 cb cd 3e 35 b3 a7 be 21 86 62 3e f6 4b 8a be
       0.40194383 -0.32753912 0.22121479 -0.2701108
000200 38 3a 07 3f 5b 28 06 3e a1 b8 41 3e 49 cb a0 3c
       0.5282321 0.13101332 0.18918087 0.019628184
000210 cc 5b ac 3e 2a 9a 80 be 0a 1e 77 be ff 14 df 3c
       0.33663785 -0.25117618 -0.24132553 0.027231691
000220 52 17 53 3e 06 64 89 3e f0 82 d1 bc c7 18 c5 3e
       0.20614365 0.26834124 -0.025575131 0.38495466
000230 4b 7b 56 3e d7 32 2e 3e 98 22 59 be ca 25 d0 3d
       0.2094547 0.17011581 -0.21204603 0.10163458
000240 d0 d1 e9 be e3 ed af 3e bc eb 72 be 36 24 bb be
       -0.45667887 0.3436118 -0.23722738 -0.36551064
000250 fc c6 a0 3e eb 15 94 be 0a 2c 2b 3e 9e d1 c8 bd
       0.31401813 -0.28922972 0.16716018 -0.09805606
000260 e9 52 d1 3e 55 24 b3 3e 5c ee 01 bf 9f 58 b7 3e
       0.40883568 0.34988657 -0.5075433 0.358098
000270 44 8e ba 3e 7c 24 b2 3e c1 74 76 be 51 08 86 bd
       0.36436665 0.3479346 -0.24067976 -0.06544555

0.bias f4 [32]
000000 07 b4 60 be 71 a3 08 3f 11 e9 ad 3e 50 82 bd bc
       -0.21943675 0.5337439 0.33966878 -0.023133427
000010 57 64 a7 3c be f8 ed 3e 29 4c 70 be 00 34 96 3e
       0.020433588 0.46478838 -0.23466553 0.29336548
000020 bf a9 b1 be 3b 97 fc bd 35 85 9c 3e 72 5e bd be
       -0.34699818 -0.123335324 0.3057038 -0.3698612
000030 88 70 b6 be 86 ca 5b 3e 75 97 0b 3d 24 d5 c8 3e
       -0.3563273 0.21463975 0.034079988 0.39225113
000040 5c d8 ce be f8 a2 05 be 16 9d 51 bc d0 27 f0 bd
       -0.40399444 -0.13050449 -0.0127938 -0.11726344
000050 11 f4 91 3d f3 01 1a be a6 f9 3b be d2 c5 aa 3e
       0.0712663 -0.15039806 -0.18356952 0.3335405
000060 e5 7a e1 be 41 f0 60 3e 2f f0 cb 3e 36 04 70 3e
       -0.44039074 0.2196665 0.39831683 0.23439106
000070 18 71 a0 be e6 6c a9 3d 5b 50 cd bd 7f 66 d0 3e
       -0.31336284 0.08272724 -0.10025092 0.40703198

2.weight f4 [16, 32]
000000 df b7 60 3c d0 af 6a be a9 43 01 3e f3 f9 55 be
       0.013715713 -0.2291863 0.12623467 -0.2089613
000010 fe 53 94 3e 1c 55 11 be 62 fd 34 be 2d 8e d1 bd
       0.2897033 -0.14192623 -0.17674783 -0.10232196
000020 a7 aa 81 3e cf 91 86 3d 3e 2c 88 3e 6e 2d 7c bc
       0.2532551 0.065707795 0.26596254 -0.015391691
000030 8f 7a da bd 30 a7 95 3e 25 5a a8 3d ed 20 3f bd
       -0.106679074 0.29229116 0.08220319 -0.04666226
000040 44 e8 06 3d 97 8f 56 3e ff aa 49 3e f2 77 0e 3e
       0.03293635 0.20953213 0.19694136 0.13912943
000050 a6 52 66 be 09 0d af bb 5c d9 d3 bc 1d 87 84 3d
       -0.22492465 -0.00534213 -0.025860481 0.06471083
000060 1c 94 de 3d 49 83 a7 bc 28 6a 1f be ac 81 9c 3d
       0.10868093 -0.020448344 -0.15567839 0.076419204
000070 a9 b8 ba 3d 38 c2 31 bd 67 3f 9e bd bf 47 c6 bd
       0.091172524 -0.043398112 -0.07726937 -0.09681653
000080 41 1e 64 bd 6b 38 7f 3e b5 95 66 3e 21 0f 4b 3d
       -0.055692915 0.24923865 0.22518046 0.049574975
000090 c2 16 c9 bb 34 fa 3f 3e 69 42 8e bc ee e2 1f 3e
       -0.006136746 0.18747789 -0.017365651 0.1561391
0000a0 b5 05 63 be 0f 43 a4 bd 4f cd e1 3d 99 7c d6 bd
       -0.22170146 -0.08020603 0.11025488 -0.10472984
0000b0 c4 e5 a8 bd 48 f9 35 3e d0 be e7 3d dc f3 bb bd
       -0.08246949 0.17770875 0.113156915 -0.09177372
0000c0 68 87 ba 3c 16 cd 13 be de 62 03 3e 71 e6 a2 bc
       0.022769645 -0.14433703 0.12830684 -0.019885274
0000d0 3a f5 78 bd 55 d1 1a bd f3 22 16 3d e5 50 47 3e
       -0.06078074 -0.03779729 0.036654424 0.19464453
0000e0 c5 2b 4b bd 63 77 4a bd 76 e7 4a bd ce b1 ac 3d
       -0.04960229 -0.049430262 -0.049537145 0.08432351
0000f0 b7 1a 57 3e d5 8e ea 3c 18 6f a5 bd d6 97 05 3e
       0.21006285 0.02863256 -0.0807783 0.13046202
000100 03 7b ab bd 66 a2 0a be 53 eb 5f 3d 5f 05 35 be
       -0.08373072 -0.13538513 0.054667782 -0.1767783
000110 dc 2b 27 3e 26 d3 04 bc 1e f9 91 bc 75 f2 1a 3e
       0.16325325 -0.008106982 -0.017818984 0.15131553
000120 bc 73 25 be 13 d0 3c bd 9f fd 3f bd 22 10 05 3e
       -0.1615743 -0.046096873 -0.04687273 0.12994435
000130 24 2f fc bd 61 58 8f 3d b3 22 12 3e 74 06 0b bc
       -0.12313679 0.06999279 0.14271049 -0.008485425
000140 d0 cc a1 bd 8a 0e 07 3d 53 97 03 be 3d dd 16 3e
       -0.07900393 0.03297285 -0.12850694 0.14732833
000150 8a eb f4 bd 23 4d ff bd 99 40 12 3b 69 21 1b bc
       -0.11958988 -0.124658845 0.0022316335 -0.009468415
000160 83 c0 9b bd 56 97 0d be 72 4b 43 bb 3c a2 56 bd
       -0.07605078 -0.13827261 -0.0029799608 -0.052400813
000170 79 b5 8c 3d e5 2f 28 3e 8a a8 8c 3d c5 49 ea 3d
       0.06870551 0.1642452 0.06868084 0.11439852
000180 40 66 1d 3e bb cd 3c 3e bd ca 9d bd 76 a6 35 be
       0.15371037 0.18437855 -0.07704685 -0.17739281
000190 27 50 e8 bc 75 22 88 3e fd 93 3f 3d b0 53 c9 3d
       -0.028358532 0.2658879 0.046771992 0.09830415
0001a0 92 d9 90 bd 64 3a 58 3d 53 05 ab 3d cf 3c ab 3c
       -0.07072748 0.05279006 0.08350625 0.02090302
0001b0 4b ad 1e be 13 c2 e6 3d ba 51 57 3d 07 f1 38 be
       -0.15495794 0.112674855 0.052568175 -0.18060695
0001c0 42 47 47 bd a9 ad 4a 3d 3d ca c5 3b c5 79 31 be
       -0.04865194 0.04948202 0.0060360716 -0.17331608
0001d0 af ef 69 3e b3 48 c4 bd d0 07 e5 3d a9 e6 61 3e
       0.22845338 -0.09584179 0.11183131 0.22060646
0001e0 86 34 87 3d b9 2f 50 bd 9d 47 55 bd 35 42 ec bd
       0.06601815 -0.050826762 -0.05207025 -0.115360655
0001f0 5e 1c 38 3e 49 02 f5 3c 0d b8 b4 3d 30 7a 3a 3e
       0.17979571 0.029908316 0.088241674 0.18210673
000200 7a e3 f5 bd d0 20 c6 bd dc 44 31 3e c5 43 be bc
       -0.12006278 -0.09674227 0.17311424 -0.023225674
000210 2b 66 2d 3e cf 15 31 be 58 67 d3 bc 52 51 73 bd
       0.16933505 -0.17293476 -0.025806114 -0.059403725
000220 56 75 e1 bd 49 51 64 3e 21 3f 0c 3e 0a 59 db bd
       -0.11008708 0.22296633 0.13695957 -0.10710342
000230 69 23 e2 3d e6 52 2b bc 6c f1 a0 3d 88 48 6a bd
       0.1104191 -0.010456776 0.078585476 -0.057198077
000240 c5 da 29 be ca 4c f3 3d 50 5c d6 3d 55 66 54 3e
       -0.1658736 0.11879881 0.10466826 0.20742162
000250 e2 83 b2 3c 4d 74 82 3c 28 62 ef 3d 0e 76 63 be
       0.021791402 0.015924597 0.11688644 -0.22213003
000260 df d0 c8 bc bc e4 dd bd 5b 92 51 3c 19 ac 9f 3d
       -0.02451366 -0.10834643 0.0127912415 0.07796497
000270 a5 78 1e 3e 9a 30 1e 3d f0 56 e3 bd 88 74 01 be
       0.1547571 0.03862057 -0.111005664 -0.1264211
000280 76 5f 21 bd 01 88 83 3d 6f 32 4f bd 41 fb 4b be
       -0.03939768 0.06422425 -0.050585207 -0.19920065
000290 1f 0b 49 3e fc 39 73 be 80 42 ee bd cb 01 45 be
       0.19633149 -0.23752588 -0.116337776 -0.19238965
0002a0 92 96 86 3e fa 23 c7 3d 36 3c 70 3e 82 0d f8 bc
       0.2628675 0.09723659 0.23460469 -0.030279879
0002b0 03 cd dc bd 53 e6 1d 3e 0b 1c 03 be 91 58 17 bd
       -0.107812904 0.15419893 -0.12803666 -0.036949698
0002c0 d1 a4 e0 3d 10 80 10 3c 5e 71 83 bd b2 bf 01 3d
       0.10968936 0.008819595 -0.064181075 0.031676956
0002d0 93 02 8c 3c b7 02 d1 3d 3d ec 2f 3e 73 bd a4 bd
       0.017091071 0.10205596 0.17179962 -0.08043947
0002e0 26 0e 0c 3e f7 8b 8d 3e fa 5d d0 bc 1d 9a 3f 3e
       0.13677272 0.27645847 -0.025435437 0.18711133
0002f0 60 15 f3 bc a4 d4 6f 3e 99 af 47 3c b4 d6 60 be
       -0.029673278 0.2342096 0.012187862 -0.21956903
000300 ca 12 2b 3d 50 bd 15 bd 93 ff 4b 3e ae a9 94 bd
       0.041765966 -0.036557496 0.19921713 -0.07258926
000310 32 0b 72 3e 11 e5 c5 3d c8 17 38 be c3 fb 99 bc
       0.23637083 0.096628316 -0.17977822 -0.018796807
000320 e0 af 7d 3e 14 50 20 3e ed f0 8b 3e e7 dd e4 bd
       0.24774122 0.15655547 0.2733225 -0.11175137
000330 a3 15 8c bc 67 93 39 bd b7 db e8 bd 66 8b ed bc
       -0.017100161 -0.04530659 -0.11370032 -0.028997134
000340 7b 65 1b 3e 88 51 99 3c aa 6d cf 3d 8c 59 6c bd
       0.1517543 0.018715635 0.10128339 -0.057702586
000350 7d 08 41 3a e6 c3 24 3e 7b 94 29 3e 36 14 f1 bd
       0.00073636306 0.16090354 0.16560547 -0.11771433
000360 26 8b 95 bd 5d 95 50 3e 0d 4a 54 3e 0c fd 63 3e
       -0.07301931 0.20369478 0.20731373 0.22264498
000370 bd 94 25 bd 55 43 03 be 15 25 8e 3e 88 f4 ae 3d
       -0.04042505 -0.12818654 0.27762666 0.085427344
000380 43 ba 50 3d 07 7e 8d 3e 0b c1 9a 3c 94 53 4a 3e
       0.050958883 0.27635214 0.018890878 0.19758445
000390 b4 d0 16 bd 23 2a 03 3d 05 a2 b9 bd 40 98 42 3e
       -0.03682013 0.032022607 -0.09064106 0.19003391
0003a0 00 db 0b be 4a fe 72 be 9f 90 a4 3d cc 5a ac 3d
       -0.1365776 -0.23729816 0.08035397 0.08415756
0003b0 34 81 83 3d 21 ce 82 3d 02 29 28 bc d8 f2 2e bd
       0.06421128 0.06386972 -0.010263683 -0.042712063
0003c0 cc d1 94 3d 8a 21 49 be 5f 03 5c 3e 4d 90 9f bd
       0.07266578 -0.196417 0.21485661 -0.07791195
0003d0 36 90 5c 3e 9e 29 55 3e 3e 33 88 bb db bc 83 3d
       0.21539387 0.20816657 -0.004156499 0.06432506
0003e0 72 00 c9 3d 54 8a 00 bc 1b 78 84 3e f7 7a f4 3d
       0.09814538 -0.00784548 0.25872883 0.11937516
0003f0 56 6c 99 3d 4a a7 2d 3e 1e a3 67 3e 50 43 d1 3d
       0.074913666 0.16958347 0.22620818 0.10217917

2.bias f4 [16]
000000 af 91 87 3e ea 46 13 3e 73 f7 24 be fd 6f 62 3e
       0.26478335 0.1438252 -0.1611002 0.22113033
000010 10 c8 24 3d c5 0c e7 3d 36 22 82 3c 0f db 2c 3e
       0.040229857 0.112817325 0.015885454 0.16880439
000020 c0 d3 8b 3e a7 35 c6 bd ce 7d d2 3d 3b a1 3d 3e
       0.2730999 -0.09678202 0.102779016 0.18518536
000030 f1 4d f2 bd 81 c2 51 3e 42 43 24 3e a2 dc 17 3c
       -0.118312724 0.20484354 0.16041282 0.009268912

4.weight f4 [3, 16]
000000 a1 6c 7c 3d 59 f3 59 3d 1d 8f 40 be 69 f9 5f bd
       0.061627034 0.05321059 -0.18804593 -0.054681215
000010 54 af 6c bc 7f 80 2f be 1a 91 5c 3e 00 74 8c 3e
       -0.014446098 -0.17138861 0.21539727 0.2743225
000020 db 31 96 be de 96 b8 be 07 e3 9e 3d 75 44 01 bd
       -0.29334912 -0.36052603 0.07758146 -0.031559426
000030 e6 03 98 bd 5e fd 8f bc 18 71 70 bd 1e 05 2d 3e
       -0.074226186 -0.01757687 -0.058701605 0.16896483
000040 ea d0 8b 3e 00 66 34 be 54 62 03 3e 68 1f 82 be
       0.27307826 -0.17617035 0.12830478 -0.25414586
000050 61 aa 13 3e 42 c5 2e 3e e8 8c 29 3e e2 75 29 be
       0.14420463 0.17067435 0.16557658 -0.16548875
000060 f6 e9 fa 3d f7 98 04 be 44 24 56 3e 6e 63 38 be
       0.12251656 -0.12948976 0.20912272 -0.1800668
000070 50 b5 1f be d7 4b 5d 3d 74 82 9b 3d 76 c5 0a 3e
       -0.15596509 0.054027405 0.07593241 0.13551888
000080 f2 2a 2d 3d 60 4f f7 3d 1e 01 91 bd bf 09 48 3e
       0.042277284 0.120756865 -0.07080291 0.19534968
000090 2b b7 42 bd a0 fa bf bd c2 92 80 be ab 73 12 3e
       -0.047537964 -0.09373975 -0.25111967 0.14301936
0000a0 69 f9 80 be c9 66 95 3d 2c a5 3d be be f4 a9 be
       -0.25190285 0.07294995 -0.1852004 -0.33194536
0000b0 bf 48 c7 bd 28 02 bc be d0 d1 3d 3e 10 97 ef bb
       -0.09730672 -0.36720395 0.18537068 -0.007311709

4.bias f4 [3]
000000 98 d9 0e 3e 1c 64 9c bd 95 66 9b be
       0.13950193 -0.07636282 -0.303517
